…
09/21/2023 20:39:19 - INFO - __main__ -     Num examples = 16405
09/21/2023 20:39:19 - INFO - __main__ -     Num Epochs = 20
09/21/2023 20:39:19 - INFO - __main__ -     Instantaneous batch size per GPU = 16
09/21/2023 20:39:19 - INFO - __main__ -     Total train batch size (w. parallel, distributed & accumulation) = 16
09/21/2023 20:39:19 - INFO - __main__ -     Gradient Accumulation steps = 1
09/21/2023 20:39:19 - INFO - __main__ -     Total optimization steps = 20520
Epoch:   0%|          | 0/20 [00:00<?, ?it/s]09/21/2023 20:39:19 - INFO - __main__ -   Model(
  (encoder): RobertaModel(
    (embeddings): RobertaEmbeddings(
      (word_embeddings): Embedding(50265, 768, padding_idx=1)
      (position_embeddings): Embedding(514, 768, padding_idx=1)
      (token_type_embeddings): Embedding(1, 768)
      (LayerNorm): LayerNorm((768,), eps=1e-05, elementwise_affine=True)
      (dropout): Dropout(p=0.1, inplace=False)
    )
    (encoder): RobertaEncoder(
      (layer): ModuleList(
        (0-11): 12 x RobertaLayer(
          (attention): RobertaAttention(
            (self): RobertaSelfAttention(
              (query): Linear(in_features=768, out_features=768, bias=True)
              (key): Linear(in_features=768, out_features=768, bias=True)
              (value): Linear(in_features=768, out_features=768, bias=True)
              (dropout): Dropout(p=0.1, inplace=False)
            )
            (output): RobertaSelfOutput(
              (dense): Linear(in_features=768, out_features=768, bias=True)
              (LayerNorm): LayerNorm((768,), eps=1e-05, elementwise_affine=True)
              (dropout): Dropout(p=0.1, inplace=False)
            )
          )
          (intermediate): RobertaIntermediate(
            (dense): Linear(in_features=768, out_features=3072, bias=True)
            (intermediate_act_fn): GELUActivation()
          )
          (output): RobertaOutput(
            (dense): Linear(in_features=3072, out_features=768, bias=True)
            (LayerNorm): LayerNorm((768,), eps=1e-05, elementwise_affine=True)
            (dropout): Dropout(p=0.1, inplace=False)
          )
        )
      )
    )
    (pooler): RobertaPooler(
      (dense): Linear(in_features=768, out_features=768, bias=True)
      (activation): Tanh()
    )
  )
  (mlp): Sequential(
    (0): Linear(in_features=3072, out_features=768, bias=True)
    (1): Tanh()
    (2): Linear(in_features=768, out_features=1, bias=True)
    (3): Sigmoid()
  )
  (loss_func): BCELoss()
)

0it [00:00, ?it/s][A
epoch 0 step 1 loss 0.69389: : 0it [00:00, ?it/s][A
epoch 0 step 1 loss 0.69389: : 1it [00:00,  1.23it/s][A
epoch 0 step 2 loss 0.69854: : 1it [00:01,  1.23it/s][A
epoch 0 step 2 loss 0.69854: : 2it [00:01,  2.13it/s][A
epoch 0 step 3 loss 0.69686: : 2it [00:01,  2.13it/s][A
…
